…
│    │    │    └─ModuleList (conv)                 --                        --                        --
│    │    └─Block (6)                              --                        --                        --
│    │    │    └─ModuleList (conv)                 --                        --                        --
│    │    └─Block (7)                              --                        --                        --
│    │    │    └─ModuleList (conv)                 --                        --                        --
├─Encoder (encoder)                                [1, 1, 3600]              [1, 1024, 1200]           --
│    └─Sequential (encoder)                        [1, 1, 3600]              [1, 1024, 1200]           --
│    │    └─Block (0)                              [1, 1, 3600]              [1, 256, 1200]            --
│    │    │    └─ModuleList (conv)                 --                        --                        --
│    │    │    │    └─TCSConv1d (0)                [1, 1, 3600]              [1, 256, 1200]            --
│    │    │    │    │    └─Conv1d (conv)           [1, 1, 3600]              [1, 256, 1200]            10,137,600
│    │    │    │    └─BatchNorm1d (1)              [1, 256, 1200]            [1, 256, 1200]            512
│    │    │    └─Sequential (activation)           [1, 256, 1200]            [1, 256, 1200]            --
│    │    │    │    └─ReLU (0)                     [1, 256, 1200]            [1, 256, 1200]            --
│    │    │    │    └─Dropout (1)                  [1, 256, 1200]            [1, 256, 1200]            --
│    │    └─Block (1)                              [1, 256, 1200]            [1, 256, 1200]            --
│    │    │    └─ModuleList (conv)                 --                        --                        --
│    │    │    │    └─TCSConv1d (0)                [1, 256, 1200]            [1, 256, 1200]            --
│    │    │    │    │    └─Conv1d (depthwise)      [1, 256, 1200]            [1, 256, 1200]            10,137,600
│    │    │    │    │    └─Conv1d (pointwise)      [1, 256, 1200]            [1, 256, 1200]            78,643,200
│    │    │    │    └─BatchNorm1d (1)              [1, 256, 1200]            [1, 256, 1200]            512
│    │    └─Block (0)                              --                        --                        --
│    │    │    └─Sequential (activation)           --                        --                        --
│    │    │    │    └─ReLU (0)                     [1, 256, 1200]            [1, 256, 1200]            --
│    │    └─Block (1)                              --                        --                        --
│    │    │    └─ModuleList (conv)                 --                        --                        --
│    │    │    │    └─Dropout (3)                  [1, 256, 1200]            [1, 256, 1200]            --
│    │    │    │    └─TCSConv1d (4)                [1, 256, 1200]            [1, 256, 1200]            --
│    │    │    │    │    └─Conv1d (depthwise)      [1, 256, 1200]            [1, 256, 1200]            10,137,600
│    │    │    │    │    └─Conv1d (pointwise)      [1, 256, 1200]            [1, 256, 1200]            78,643,200
│    │    │    │    └─BatchNorm1d (5)              [1, 256, 1200]            [1, 256, 1200]            512
│    │    └─Block (0)                              --                        --                        --
│    │    │    └─Sequential (activation)           --                        --                        --
│    │    │    │    └─ReLU (0)                     [1, 256, 1200]            [1, 256, 1200]            --
│    │    └─Block (1)                              --                        --                        --
│    │    │    └─ModuleList (conv)                 --                        --                        --
│    │    │    │    └─Dropout (7)                  [1, 256, 1200]            [1, 256, 1200]            --
│    │    │    │    └─TCSConv1d (8)                [1, 256, 1200]            [1, 256, 1200]            --
│    │    │    │    │    └─Conv1d (depthwise)      [1, 256, 1200]            [1, 256, 1200]            10,137,600
│    │    │    │    │    └─Conv1d (pointwise)      [1, 256, 1200]            [1, 256, 1200]            78,643,200
│    │    │    │    └─BatchNorm1d (9)              [1, 256, 1200]            [1, 256, 1200]            512
│    │    └─Block (0)                              --                        --                        --
│    │    │    └─Sequential (activation)           --                        --                        --
│    │    │    │    └─ReLU (0)                     [1, 256, 1200]            [1, 256, 1200]            --
│    │    └─Block (1)                              --                        --                        --
│    │    │    └─ModuleList (conv)                 --                        --                        --
│    │    │    │    └─Dropout (11)                 [1, 256, 1200]            [1, 256, 1200]            --
│    │    │    │    └─TCSConv1d (12)               [1, 256, 1200]            [1, 256, 1200]            --
│    │    │    │    │    └─Conv1d (depthwise)      [1, 256, 1200]            [1, 256, 1200]            10,137,600
│    │    │    │    │    └─Conv1d (pointwise)      [1, 256, 1200]            [1, 256, 1200]            78,643,200
│    │    │    │    └─BatchNorm1d (13)             [1, 256, 1200]            [1, 256, 1200]            512
│    │    └─Block (0)                              --                        --                        --
│    │    │    └─Sequential (activation)           --                        --                        --
│    │    │    │    └─ReLU (0)                     [1, 256, 1200]            [1, 256, 1200]            --
│    │    └─Block (1)                              --                        --                        --
│    │    │    └─ModuleList (conv)                 --                        --                        --
│    │    │    │    └─Dropout (15)                 [1, 256, 1200]            [1, 256, 1200]            --
│    │    │    │    └─TCSConv1d (16)               [1, 256, 1200]            [1, 256, 1200]            --
│    │    │    │    │    └─Conv1d (depthwise)      [1, 256, 1200]            [1, 256, 1200]            10,137,600
│    │    │    │    │    └─Conv1d (pointwise)      [1, 256, 1200]            [1, 256, 1200]            78,643,200
│    │    │    │    └─BatchNorm1d (17)             [1, 256, 1200]            [1, 256, 1200]            512
│    │    │    └─Sequential (residual)             [1, 256, 1200]            [1, 256, 1200]            --
│    │    │    │    └─TCSConv1d (0)                [1, 256, 1200]            [1, 256, 1200]            --
│    │    │    │    │    └─Conv1d (conv)           [1, 256, 1200]            [1, 256, 1200]            78,643,200
│    │    │    │    └─BatchNorm1d (1)              [1, 256, 1200]            [1, 256, 1200]            512
│    │    │    └─Sequential (activation)           [1, 256, 1200]            [1, 256, 1200]            --
│    │    └─Block (0)                              --                        --                        --
│    │    │    └─Sequential (activation)           --                        --                        --
│    │    │    │    └─ReLU (0)                     [1, 256, 1200]            [1, 256, 1200]            --
│    │    └─Block (1)                              --                        --                        --
│    │    │    └─Sequential (activation)           --                        --                        --
│    │    │    │    └─Dropout (1)                  [1, 256, 1200]            [1, 256, 1200]            --
│    │    └─Block (2)                              [1, 256, 1200]            [1, 256, 1200]            --
│    │    │    └─ModuleList (conv)                 --                        --                        --
│    │    │    │    └─TCSConv1d (0)                [1, 256, 1200]            [1, 256, 1200]            --
│    │    │    │    │    └─Conv1d (depthwise)      [1, 256, 1200]            [1, 256, 1200]            11,980,800
│    │    │    │    │    └─Conv1d (pointwise)      [1, 256, 1200]            [1, 256, 1200]            78,643,200
│    │    │    │    └─BatchNorm1d (1)              [1, 256, 1200]            [1, 256, 1200]            512
│    │    └─Block (0)                              --                        --                        --
│    │    │    └─Sequential (activation)           --                        --                        --
│    │    │    │    └─ReLU (0)                     [1, 256, 1200]            [1, 256, 1200]            --
│    │    └─Block (2)                              --                        --                        --
│    │    │    └─ModuleList (conv)                 --                        --                        --
│    │    │    │    └─Dropout (3)                  [1, 256, 1200]            [1, 256, 1200]            --
│    │    │    │    └─TCSConv1d (4)                [1, 256, 1200]            [1, 256, 1200]            --
│    │    │    │    │    └─Conv1d (depthwise)      [1, 256, 1200]            [1, 256, 1200]            11,980,800
│    │    │    │    │    └─Conv1d (pointwise)      [1, 256, 1200]            [1, 256, 1200]            78,643,200
│    │    │    │    └─BatchNorm1d (5)              [1, 256, 1200]            [1, 256, 1200]            512
│    │    └─Block (0)                              --                        --                        --
│    │    │    └─Sequential (activation)           --                        --                        --
│    │    │    │    └─ReLU (0)                     [1, 256, 1200]            [1, 256, 1200]            --
│    │    └─Block (2)                              --                        --                        --
│    │    │    └─ModuleList (conv)                 --                        --                        --
│    │    │    │    └─Dropout (7)                  [1, 256, 1200]            [1, 256, 1200]            --
│    │    │    │    └─TCSConv1d (8)                [1, 256, 1200]            [1, 256, 1200]            --
│    │    │    │    │    └─Conv1d (depthwise)      [1, 256, 1200]            [1, 256, 1200]            11,980,800
│    │    │    │    │    └─Conv1d (pointwise)      [1, 256, 1200]            [1, 256, 1200]            78,643,200
│    │    │    │    └─BatchNorm1d (9)              [1, 256, 1200]            [1, 256, 1200]            512
│    │    └─Block (0)                              --                        --                        --
│    │    │    └─Sequential (activation)           --                        --                        --
│    │    │    │    └─ReLU (0)                     [1, 256, 1200]            [1, 256, 1200]            --
│    │    └─Block (2)                              --                        --                        --
│    │    │    └─ModuleList (conv)                 --                        --                        --
│    │    │    │    └─Dropout (11)                 [1, 256, 1200]            [1, 256, 1200]            --
│    │    │    │    └─TCSConv1d (12)               [1, 256, 1200]            [1, 256, 1200]            --
│    │    │    │    │    └─Conv1d (depthwise)      [1, 256, 1200]            [1, 256, 1200]            11,980,800
│    │    │    │    │    └─Conv1d (pointwise)      [1, 256, 1200]            [1, 256, 1200]            78,643,200
│    │    │    │    └─BatchNorm1d (13)             [1, 256, 1200]            [1, 256, 1200]            512
│    │    └─Block (0)                              --                        --                        --
│    │    │    └─Sequential (activation)           --                        --                        --
│    │    │    │    └─ReLU (0)                     [1, 256, 1200]            [1, 256, 1200]            --
│    │    └─Block (2)                              --                        --                        --
│    │    │    └─ModuleList (conv)                 --                        --                        --
│    │    │    │    └─Dropout (15)                 [1, 256, 1200]            [1, 256, 1200]            --
│    │    │    │    └─TCSConv1d (16)               [1, 256, 1200]            [1, 256, 1200]            --
│    │    │    │    │    └─Conv1d (depthwise)      [1, 256, 1200]            [1, 256, 1200]            11,980,800
│    │    │    │    │    └─Conv1d (pointwise)      [1, 256, 1200]            [1, 256, 1200]            78,643,200
│    │    │    │    └─BatchNorm1d (17)             [1, 256, 1200]            [1, 256, 1200]            512
│    │    │    └─Sequential (residual)             [1, 256, 1200]            [1, 256, 1200]            --
│    │    │    │    └─TCSConv1d (0)                [1, 256, 1200]            [1, 256, 1200]            --
│    │    │    │    │    └─Conv1d (conv)           [1, 256, 1200]            [1, 256, 1200]            78,643,200
│    │    │    │    └─BatchNorm1d (1)              [1, 256, 1200]            [1, 256, 1200]            512
│    │    │    └─Sequential (activation)           [1, 256, 1200]            [1, 256, 1200]            --
│    │    └─Block (0)                              --                        --                        --
│    │    │    └─Sequential (activation)           --                        --                        --
│    │    │    │    └─ReLU (0)                     [1, 256, 1200]            [1, 256, 1200]            --
│    │    └─Block (2)                              --                        --                        --
│    │    │    └─Sequential (activation)           --                        --                        --
│    │    │    │    └─Dropout (1)                  [1, 256, 1200]            [1, 256, 1200]            --
│    │    └─Block (3)                              [1, 256, 1200]            [1, 512, 1200]            --
│    │    │    └─ModuleList (conv)                 --                        --                        --
│    │    │    │    └─TCSConv1d (0)                [1, 256, 1200]            [1, 512, 1200]            --
│    │    │    │    │    └─Conv1d (depthwise)      [1, 256, 1200]            [1, 256, 1200]            15,667,200
│    │    │    │    │    └─Conv1d (pointwise)      [1, 256, 1200]            [1, 512, 1200]            157,286,400
│    │    │    │    └─BatchNorm1d (1)              [1, 512, 1200]            [1, 512, 1200]            1,024
│    │    └─Block (0)                              --                        --                        --
│    │    │    └─Sequential (activation)           --                        --                        --
│    │    │    │    └─ReLU (0)                     [1, 512, 1200]            [1, 512, 1200]            --
│    │    └─Block (3)                              --                        --                        --
│    │    │    └─ModuleList (conv)                 --                        --                        --
│    │    │    │    └─Dropout (3)                  [1, 512, 1200]            [1, 512, 1200]            --
│    │    │    │    └─TCSConv1d (4)                [1, 512, 1200]            [1, 512, 1200]            --
│    │    │    │    │    └─Conv1d (depthwise)      [1, 512, 1200]            [1, 512, 1200]            31,334,400
│    │    │    │    │    └─Conv1d (pointwise)      [1, 512, 1200]            [1, 512, 1200]            314,572,800
│    │    │    │    └─BatchNorm1d (5)              [1, 512, 1200]            [1, 512, 1200]            1,024
│    │    └─Block (0)                              --                        --                        --
│    │    │    └─Sequential (activation)           --                        --                        --
│    │    │    │    └─ReLU (0)                     [1, 512, 1200]            [1, 512, 1200]            --
│    │    └─Block (3)                              --                        --                        --
│    │    │    └─ModuleList (conv)                 --                        --                        --
│    │    │    │    └─Dropout (7)                  [1, 512, 1200]            [1, 512, 1200]            --
│    │    │    │    └─TCSConv1d (8)                [1, 512, 1200]            [1, 512, 1200]            --
│    │    │    │    │    └─Conv1d (depthwise)      [1, 512, 1200]            [1, 512, 1200]            31,334,400
│    │    │    │    │    └─Conv1d (pointwise)      [1, 512, 1200]            [1, 512, 1200]            314,572,800
│    │    │    │    └─BatchNorm1d (9)              [1, 512, 1200]            [1, 512, 1200]            1,024
│    │    └─Block (0)                              --                        --                        --
│    │    │    └─Sequential (activation)           --                        --                        --
│    │    │    │    └─ReLU (0)                     [1, 512, 1200]            [1, 512, 1200]            --
│    │    └─Block (3)                              --                        --                        --
│    │    │    └─ModuleList (conv)                 --                        --                        --
│    │    │    │    └─Dropout (11)                 [1, 512, 1200]            [1, 512, 1200]            --
│    │    │    │    └─TCSConv1d (12)               [1, 512, 1200]            [1, 512, 1200]            --
│    │    │    │    │    └─Conv1d (depthwise)      [1, 512, 1200]            [1, 512, 1200]            31,334,400
│    │    │    │    │    └─Conv1d (pointwise)      [1, 512, 1200]            [1, 512, 1200]            314,572,800
│    │    │    │    └─BatchNorm1d (13)             [1, 512, 1200]            [1, 512, 1200]            1,024
│    │    └─Block (0)                              --                        --                        --
│    │    │    └─Sequential (activation)           --                        --                        --
│    │    │    │    └─ReLU (0)                     [1, 512, 1200]            [1, 512, 1200]            --
│    │    └─Block (3)                              --                        --                        --
│    │    │    └─ModuleList (conv)                 --                        --                        --
│    │    │    │    └─Dropout (15)                 [1, 512, 1200]            [1, 512, 1200]            --
│    │    │    │    └─TCSConv1d (16)               [1, 512, 1200]            [1, 512, 1200]            --
│    │    │    │    │    └─Conv1d (depthwise)      [1, 512, 1200]            [1, 512, 1200]            31,334,400
│    │    │    │    │    └─Conv1d (pointwise)      [1, 512, 1200]            [1, 512, 1200]            314,572,800
│    │    │    │    └─BatchNorm1d (17)             [1, 512, 1200]            [1, 512, 1200]            1,024
│    │    │    └─Sequential (residual)             [1, 256, 1200]            [1, 512, 1200]            --
│    │    │    │    └─TCSConv1d (0)                [1, 256, 1200]            [1, 512, 1200]            --
│    │    │    │    │    └─Conv1d (conv)           [1, 256, 1200]            [1, 512, 1200]            157,286,400
│    │    │    │    └─BatchNorm1d (1)              [1, 512, 1200]            [1, 512, 1200]            1,024
│    │    │    └─Sequential (activation)           [1, 512, 1200]            [1, 512, 1200]            --
│    │    └─Block (0)                              --                        --                        --
│    │    │    └─Sequential (activation)           --                        --                        --
│    │    │    │    └─ReLU (0)                     [1, 512, 1200]            [1, 512, 1200]            --
│    │    └─Block (3)                              --                        --                        --
│    │    │    └─Sequential (activation)           --                        --                        --
│    │    │    │    └─Dropout (1)                  [1, 512, 1200]            [1, 512, 1200]            --
│    │    └─Block (4)                              [1, 512, 1200]            [1, 512, 1200]            --
│    │    │    └─ModuleList (conv)                 --                        --                        --
│    │    │    │    └─TCSConv1d (0)                [1, 512, 1200]            [1, 512, 1200]            --
│    │    │    │    │    └─Conv1d (depthwise)      [1, 512, 1200]            [1, 512, 1200]            38,707,200
│    │    │    │    │    └─Conv1d (pointwise)      [1, 512, 1200]            [1, 512, 1200]            314,572,800
│    │    │    │    └─BatchNorm1d (1)              [1, 512, 1200]            [1, 512, 1200]            1,024
│    │    └─Block (0)                              --                        --                        --
│    │    │    └─Sequential (activation)           --                        --                        --
│    │    │    │    └─ReLU (0)                     [1, 512, 1200]            [1, 512, 1200]            --
│    │    └─Block (4)                              --                        --                        --
│    │    │    └─ModuleList (conv)                 --                        --                        --
│    │    │    │    └─Dropout (3)                  [1, 512, 1200]            [1, 512, 1200]            --
│    │    │    │    └─TCSConv1d (4)                [1, 512, 1200]            [1, 512, 1200]            --
│    │    │    │    │    └─Conv1d (depthwise)      [1, 512, 1200]            [1, 512, 1200]            38,707,200
│    │    │    │    │    └─Conv1d (pointwise)      [1, 512, 1200]            [1, 512, 1200]            314,572,800
│    │    │    │    └─BatchNorm1d (5)              [1, 512, 1200]            [1, 512, 1200]            1,024
│    │    └─Block (0)                              --                        --                        --
│    │    │    └─Sequential (activation)           --                        --                        --
│    │    │    │    └─ReLU (0)                     [1, 512, 1200]            [1, 512, 1200]            --
│    │    └─Block (4)                              --                        --                        --
│    │    │    └─ModuleList (conv)                 --                        --                        --
│    │    │    │    └─Dropout (7)                  [1, 512, 1200]            [1, 512, 1200]            --
│    │    │    │    └─TCSConv1d (8)                [1, 512, 1200]            [1, 512, 1200]            --
│    │    │    │    │    └─Conv1d (depthwise)      [1, 512, 1200]            [1, 512, 1200]            38,707,200
│    │    │    │    │    └─Conv1d (pointwise)      [1, 512, 1200]            [1, 512, 1200]            314,572,800
│    │    │    │    └─BatchNorm1d (9)              [1, 512, 1200]            [1, 512, 1200]            1,024
│    │    └─Block (0)                              --                        --                        --
│    │    │    └─Sequential (activation)           --                        --                        --
│    │    │    │    └─ReLU (0)                     [1, 512, 1200]            [1, 512, 1200]            --
│    │    └─Block (4)                              --                        --                        --
│    │    │    └─ModuleList (conv)                 --                        --                        --
│    │    │    │    └─Dropout (11)                 [1, 512, 1200]            [1, 512, 1200]            --
│    │    │    │    └─TCSConv1d (12)               [1, 512, 1200]            [1, 512, 1200]            --
│    │    │    │    │    └─Conv1d (depthwise)      [1, 512, 1200]            [1, 512, 1200]            38,707,200
│    │    │    │    │    └─Conv1d (pointwise)      [1, 512, 1200]            [1, 512, 1200]            314,572,800
│    │    │    │    └─BatchNorm1d (13)             [1, 512, 1200]            [1, 512, 1200]            1,024
│    │    └─Block (0)                              --                        --                        --
│    │    │    └─Sequential (activation)           --                        --                        --
│    │    │    │    └─ReLU (0)                     [1, 512, 1200]            [1, 512, 1200]            --
│    │    └─Block (4)                              --                        --                        --
│    │    │    └─ModuleList (conv)                 --                        --                        --
│    │    │    │    └─Dropout (15)                 [1, 512, 1200]            [1, 512, 1200]            --
│    │    │    │    └─TCSConv1d (16)               [1, 512, 1200]            [1, 512, 1200]            --
│    │    │    │    │    └─Conv1d (depthwise)      [1, 512, 1200]            [1, 512, 1200]            38,707,200
│    │    │    │    │    └─Conv1d (pointwise)      [1, 512, 1200]            [1, 512, 1200]            314,572,800
│    │    │    │    └─BatchNorm1d (17)             [1, 512, 1200]            [1, 512, 1200]            1,024
│    │    │    └─Sequential (residual)             [1, 512, 1200]            [1, 512, 1200]            --
│    │    │    │    └─TCSConv1d (0)                [1, 512, 1200]            [1, 512, 1200]            --
│    │    │    │    │    └─Conv1d (conv)           [1, 512, 1200]            [1, 512, 1200]            314,572,800
│    │    │    │    └─BatchNorm1d (1)              [1, 512, 1200]            [1, 512, 1200]            1,024
│    │    │    └─Sequential (activation)           [1, 512, 1200]            [1, 512, 1200]            --
│    │    └─Block (0)                              --                        --                        --
│    │    │    └─Sequential (activation)           --                        --                        --
│    │    │    │    └─ReLU (0)                     [1, 512, 1200]            [1, 512, 1200]            --
│    │    └─Block (4)                              --                        --                        --
│    │    │    └─Sequential (activation)           --                        --                        --
│    │    │    │    └─Dropout (1)                  [1, 512, 1200]            [1, 512, 1200]            --
│    │    └─Block (5)                              [1, 512, 1200]            [1, 512, 1200]            --
│    │    │    └─ModuleList (conv)                 --                        --                        --
│    │    │    │    └─TCSConv1d (0)                [1, 512, 1200]            [1, 512, 1200]            --
│    │    │    │    │    └─Conv1d (depthwise)      [1, 512, 1200]            [1, 512, 1200]            46,080,000
│    │    │    │    │    └─Conv1d (pointwise)      [1, 512, 1200]            [1, 512, 1200]            314,572,800
│    │    │    │    └─BatchNorm1d (1)              [1, 512, 1200]            [1, 512, 1200]            1,024
│    │    └─Block (0)                              --                        --                        --
│    │    │    └─Sequential (activation)           --                        --                        --
│    │    │    │    └─ReLU (0)                     [1, 512, 1200]            [1, 512, 1200]            --
│    │    └─Block (5)                              --                        --                        --
│    │    │    └─ModuleList (conv)                 --                        --                        --
│    │    │    │    └─Dropout (3)                  [1, 512, 1200]            [1, 512, 1200]            --
│    │    │    │    └─TCSConv1d (4)                [1, 512, 1200]            [1, 512, 1200]            --
│    │    │    │    │    └─Conv1d (depthwise)      [1, 512, 1200]            [1, 512, 1200]            46,080,000
│    │    │    │    │    └─Conv1d (pointwise)      [1, 512, 1200]            [1, 512, 1200]            314,572,800
│    │    │    │    └─BatchNorm1d (5)              [1, 512, 1200]            [1, 512, 1200]            1,024
│    │    └─Block (0)                              --                        --                        --
│    │    │    └─Sequential (activation)           --                        --                        --
│    │    │    │    └─ReLU (0)                     [1, 512, 1200]            [1, 512, 1200]            --
│    │    └─Block (5)                              --                        --                        --
│    │    │    └─ModuleList (conv)                 --                        --                        --
│    │    │    │    └─Dropout (7)                  [1, 512, 1200]            [1, 512, 1200]            --
│    │    │    │    └─TCSConv1d (8)                [1, 512, 1200]            [1, 512, 1200]            --
│    │    │    │    │    └─Conv1d (depthwise)      [1, 512, 1200]            [1, 512, 1200]            46,080,000
│    │    │    │    │    └─Conv1d (pointwise)      [1, 512, 1200]            [1, 512, 1200]            314,572,800
│    │    │    │    └─BatchNorm1d (9)              [1, 512, 1200]            [1, 512, 1200]            1,024
│    │    └─Block (0)                              --                        --                        --
│    │    │    └─Sequential (activation)           --                        --                        --
│    │    │    │    └─ReLU (0)                     [1, 512, 1200]            [1, 512, 1200]            --
│    │    └─Block (5)                              --                        --                        --
│    │    │    └─ModuleList (conv)                 --                        --                        --
│    │    │    │    └─Dropout (11)                 [1, 512, 1200]            [1, 512, 1200]            --
│    │    │    │    └─TCSConv1d (12)               [1, 512, 1200]            [1, 512, 1200]            --
│    │    │    │    │    └─Conv1d (depthwise)      [1, 512, 1200]            [1, 512, 1200]            46,080,000
│    │    │    │    │    └─Conv1d (pointwise)      [1, 512, 1200]            [1, 512, 1200]            314,572,800
│    │    │    │    └─BatchNorm1d (13)             [1, 512, 1200]            [1, 512, 1200]            1,024
│    │    └─Block (0)                              --                        --                        --
│    │    │    └─Sequential (activation)           --                        --                        --
│    │    │    │    └─ReLU (0)                     [1, 512, 1200]            [1, 512, 1200]            --
│    │    └─Block (5)                              --                        --                        --
│    │    │    └─ModuleList (conv)                 --                        --                        --
│    │    │    │    └─Dropout (15)                 [1, 512, 1200]            [1, 512, 1200]            --
│    │    │    │    └─TCSConv1d (16)               [1, 512, 1200]            [1, 512, 1200]            --
│    │    │    │    │    └─Conv1d (depthwise)      [1, 512, 1200]            [1, 512, 1200]            46,080,000
│    │    │    │    │    └─Conv1d (pointwise)      [1, 512, 1200]            [1, 512, 1200]            314,572,800
│    │    │    │    └─BatchNorm1d (17)             [1, 512, 1200]            [1, 512, 1200]            1,024
│    │    │    └─Sequential (residual)             [1, 512, 1200]            [1, 512, 1200]            --
│    │    │    │    └─TCSConv1d (0)                [1, 512, 1200]            [1, 512, 1200]            --
│    │    │    │    │    └─Conv1d (conv)           [1, 512, 1200]            [1, 512, 1200]            314,572,800
│    │    │    │    └─BatchNorm1d (1)              [1, 512, 1200]            [1, 512, 1200]            1,024
│    │    │    └─Sequential (activation)           [1, 512, 1200]            [1, 512, 1200]            --
│    │    └─Block (0)                              --                        --                        --
│    │    │    └─Sequential (activation)           --                        --                        --
│    │    │    │    └─ReLU (0)                     [1, 512, 1200]            [1, 512, 1200]            --
│    │    └─Block (5)                              --                        --                        --
│    │    │    └─Sequential (activation)           --                        --                        --
│    │    │    │    └─Dropout (1)                  [1, 512, 1200]            [1, 512, 1200]            --
│    │    └─Block (6)                              [1, 512, 1200]            [1, 512, 1200]            --
│    │    │    └─ModuleList (conv)                 --                        --                        --
│    │    │    │    └─TCSConv1d (0)                [1, 512, 1200]            [1, 512, 1200]            --
│    │    │    │    │    └─Conv1d (depthwise)      [1, 512, 1200]            [1, 512, 1200]            53,452,800
│    │    │    │    │    └─Conv1d (pointwise)      [1, 512, 1200]            [1, 512, 1200]            314,572,800
│    │    │    │    └─BatchNorm1d (1)              [1, 512, 1200]            [1, 512, 1200]            1,024
│    │    │    └─Sequential (activation)           [1, 512, 1200]            [1, 512, 1200]            --
│    │    └─Block (0)                              --                        --                        --
│    │    │    └─Sequential (activation)           --                        --                        --
│    │    │    │    └─ReLU (0)                     [1, 512, 1200]            [1, 512, 1200]            --
│    │    └─Block (6)                              --                        --                        --
│    │    │    └─Sequential (activation)           --                        --                        --
│    │    │    │    └─Dropout (1)                  [1, 512, 1200]            [1, 512, 1200]            --
│    │    └─Block (7)                              [1, 512, 1200]            [1, 1024, 1200]           --
│    │    │    └─ModuleList (conv)                 --                        --                        --
│    │    │    │    └─TCSConv1d (0)                [1, 512, 1200]            [1, 1024, 1200]           --
│    │    │    │    │    └─Conv1d (conv)           [1, 512, 1200]            [1, 1024, 1200]           629,145,600
│    │    │    │    └─BatchNorm1d (1)              [1, 1024, 1200]           [1, 1024, 1200]           2,048
│    │    │    └─Sequential (activation)           [1, 1024, 1200]           [1, 1024, 1200]           --
│    │    └─Block (0)                              --                        --                        --
│    │    │    └─Sequential (activation)           --                        --                        --
│    │    │    │    └─ReLU (0)                     [1, 1024, 1200]           [1, 1024, 1200]           --
│    │    └─Block (7)                              --                        --                        --
│    │    │    └─Sequential (activation)           --                        --                        --
│    │    │    │    └─Dropout (1)                  [1, 1024, 1200]           [1, 1024, 1200]           --
├─Decoder (decoder)                                [1, 1024, 1200]           [1200, 1, 5]              --
│    └─Sequential (layers)                         [1, 1024, 1200]           [1200, 1, 5]              --
│    │    └─Conv1d (0)                             [1, 1024, 1200]           [1, 5, 1200]              6,150,000
│    │    └─Permute (1)                            [1, 5, 1200]              [1200, 1, 5]              --
=============================================================================================================================
Total params: 6,678,533
Trainable params: 6,678,533
Non-trainable params: 0
Total mult-adds (G): 7.98
=============================================================================================================================
Input size (MB): 0.01
Forward/backward pass size (MB): 371.15
…
